new/models/random_pca_svm_rbf/model.pkl_19.npy (npy, 440 bytes, 1 tensors)

array f8 [45]
0	0x3fd9f8b02a6e5867	0.40580371993690395
1	0x3fc05aee205ff4a5	0.12777496891786658
2	0x3f52d4693d65e046	0.0011492755635043191
3	0x3fd1b7034738d224	0.2767952151801032
4	0x3fcd08b2c7fd1cdd	0.22682795300554562
5	0x3fd2102ea4987a71	0.2822376830462537
6	0x3fb4852a2ad9e023	0.08015693231743674
7	0x3fcde1656d4ba799	0.233441046111065
8	0x3fc34f265f95c6ff	0.1508529631351436
9	0xbfe197a6f5d81c43	-0.5497622300762334
10	0xbfe430de9d4529ea	-0.6309655257876419
11	0xbfb3d8f8c8075e48	-0.07752947696223444
12	0xbfe2438d3f70b614	-0.5707460631435333
13	0xbfc67d7c6c567225	-0.17570452966619246
14	0xbfc65e658af87f56	-0.17475575719526643
15	0x3fd085b294aa467f	0.25816025274352933
16	0xbfd03e95ee6d5538	-0.2538199261083096
17	0x3fc028f4f3e8cd34	0.1262499037708068
18	0x3fabdc7fb91cb997	0.054416648241715375
19	0x3f71870bc1ae5e62	0.004279180454339478
20	0x3fd1162182e13d01	0.2669757631419572
21	0xbfa0e19e5f86b790	-0.0329713336571863
22	0x3fe4d4ae83b1303e	0.6509621212112575
23	0xbfb36fd6c2ad3cfa	-0.07592527630662352
24	0x3fb363c61ab288b9	0.07574117805282556
25	0x3f4732afd5cfc421	0.000707946640998828
26	0x3fc8e7f5b91a2fd4	0.19457885301778666
27	0xbfc74d75fd5bcb30	-0.1820514189817799
28	0x3ff02b3952a01b61	1.0105527141147024
29	0x3fb951e770b96280	0.09890600683264417
30	0xbfb0e2c099c0de5d	-0.06595996621842333
31	0x3fc013af533c3708	0.12560073436946362
32	0xbfc5ad114d4e2c22	-0.16934410357166124
33	0x3fca9810ec352795	0.2077656892163843
34	0xbfac31d849cfaf08	-0.055067786226429105
35	0x3fd3c302b52e129b	0.30877750104290563
36	0xbfbbfe23c7fff7e8	-0.10934661515054211
37	0x3fea131794c1d74e	0.8148305802739999
38	0x3fab3924d97b7da7	0.05317034869016917
39	0xbfad85e5452a81f8	-0.0576621672564705
40	0x3fbb08ca77061e95	0.10560288816315684
41	0xbfbb45587235a17e	-0.10652687824552307
42	0x3fe2f76a9958bc11	0.5927021975566068
43	0x3fe74823967d747c	0.7275560321101149
44	0xbfe56c87e77d8ba4	-0.6694983979508504
