new/models/random_pca_svm_rbf/model.pkl_06.npy (npy, 188240 bytes, 1 tensors)

array f8 [30, 784]
0	0x3c1717b7c0162fcc	3.1296373313065864e-19
1	0xbca0000000000000	-1.1102230246251565e-16
2	0x0000000000000000	0.0
3	0xbcb0000000000000	-2.220446049250313e-16
4	0x3c90000000000000	5.551115123125783e-17
5	0xbc70000000000000	-1.3877787807814457e-17
6	0x0000000000000000	0.0
7	0x0000000000000000	0.0
8	0x0000000000000000	0.0
9	0x0000000000000000	0.0
10	0x0000000000000000	0.0
11	0xbbb0000000000000	-3.3881317890172014e-21
12	0x3ed4c9f406f578e0	4.9564551852494625e-06
13	0x3ee287c3845d72ac	8.835948516577645e-06
14	0x3ed54afd4fdbea45	5.076629575157816e-06
15	0x3ed54afd4fdbea45	5.076629575157816e-06
16	0x0000000000000000	0.0
17	0x0000000000000000	0.0
18	0x0000000000000000	0.0
19	0x0000000000000000	0.0
20	0x0000000000000000	0.0
21	0x0000000000000000	0.0
22	0x0000000000000000	0.0
23	0x0000000000000000	0.0
24	0x0000000000000000	0.0
25	0x0000000000000000	0.0
26	0x0000000000000000	0.0
27	0x0000000000000000	0.0
28	0x0000000000000000	0.0
29	0x0000000000000000	0.0
30	0x0000000000000000	0.0
31	0x0000000000000000	0.0
32	0x0000000000000000	0.0
33	0xbee1174ed61e25f4	-8.14964613817229e-06
34	0xbef561534904c181	-2.0389725763071603e-05
35	0xbefe89fa9e544458	-2.912424124185508e-05
36	0xbef6dfbc6cb07fff	-2.1814316635837546e-05
37	0xbf05d66630b292eb	-4.165171966378174e-05
38	0xbf14fc39e2b50bd6	-8.005240731727369e-05
39	0xbf15f34d8331c50d	-8.37341365682762e-05
40	0xbf0adfe2a588d546	-5.125914021101656e-05
41	0xbf116dee6aca3fac	-6.648795779029434e-05
42	0xbf11b9019043df22	-6.76066593462391e-05
43	0xbf10dae59b1639d7	-6.429697420726826e-05
44	0xbf04507f5e8b7976	-3.874672603897376e-05
45	0x3ed695470ab807f1	5.384234252671706e-06
46	0xbed34106ecec4564	-4.590514165029927e-06
47	0xbee6172d2aa3ac1e	-1.0533586948876776e-05
48	0x3ed18f79de78a295	4.186738329838573e-06
49	0x3ee69ffa24513c69	1.0788398080800563e-05
50	0x3ed3798e937eb20f	4.643161723477426e-06
51	0x3ed3798e937eb20f	4.643161723477426e-06
52	0x0000000000000000	0.0
53	0x0000000000000000	0.0
54	0x0000000000000000	0.0
55	0x0000000000000000	0.0
56	0x0000000000000000	0.0
57	0x0000000000000000	0.0
58	0xbeef49ab136e6589	-1.4919169741211727e-05
59	0x0000000000000000	0.0
60	0xbebbd5a2eb430eb3	-1.6590665099938315e-06
61	0xbed378963df3c907	-4.642258289099547e-06
62	0xbf016817decf2fa3	-3.320048185848016e-05
63	0xbf17746d03e2e71c	-8.947291732655207e-05
64	0xbf28070ce2a2c758	-0.00018331558505263012
65	0xbf35b79338f26fad	-0.0003313764982040234
66	0xbf3d43204b51c0e0	-0.0004465059130955972
67	0xbf4c9ce20e010178	-0.0008731941015938513
68	0xbf571210dd3a1190	-0.0014081158341535428
69	0xbf61076935ebc0be	-0.002078729142674345
70	0xbf64f070fc51d9e1	-0.0025560576200931305
71	0xbf65d672ba7cfc65	-0.0026657334127829107
72	0xbf63d3828409ba15	-0.002420191682453119
73	0xbf5f6359bd1c6d39	-0.001915776858772157
74	0xbf56160e4ad713d3	-0.001348031957023145
75	0xbf4f2d640bd5a1c2	-0.0009514559275603451
76	0xbf4169aef260adc1	-0.0005313972694742029
77	0xbf34281cd468e9fc	-0.0003075666794846441
78	0xbf2130f46c628122	-0.00013115867313207805
79	0xbf080f36512e2e46	-4.588970673244075e-05
80	0xbedd5de41e9f1c9c	-7.001581687710687e-06
81	0x3ed59e32e9a4aba4	5.154124347132609e-06
82	0x0000000000000000	0.0
83	0x0000000000000000	0.0
84	0x0000000000000000	0.0
85	0x0000000000000000	0.0
86	0xbef004aa80105054	-1.527617132886267e-05
87	0xbeef2e3a90757708	-1.486805969247051e-05
88	0xbf04abc54b30bd1f	-3.9426763941081135e-05
89	0xbf1542f641813c23	-8.110645319557622e-05
90	0xbf23378f3910c913	-0.00014661429716651044
91	0xbf32cb1003eb4ce4	-0.00028676167486914165
92	0xbf45b8fe079d63f4	-0.0006629219417205721
93	0xbf524609c8afc044	-0.0011153312250336148
94	0xbf5efb9c050b6114	-0.0018910430555277346
95	0xbf6b089c01ce9898	-0.003300003720556676
96	0xbf74618cb5a0a867	-0.004975843092362187
97	0xbf7c0e118a2269f1	-0.006849354280485263
98	0xbf81ded1a33d021e	-0.008725774568689334
99	0xbf8403cb2228d57e	-0.009772860507932132
100	0xbf82dcc8bf331f04	-0.009210174879981554
101	0xbf7dd69b69a4892b	-0.007284743386011076
102	0xbf768e1265a2bdf8	-0.005506584037149313
103	0xbf70312ec354e096	-0.00395315424730582
104	0xbf63b8d1739a00a1	-0.002407464108557703
105	0xbf53eb3ea744088f	-0.0012157546853477673
106	0xbf427520f0051eca	-0.0005632792308824738
107	0xbf2130c979770241	-0.00013115367322137815
108	0xbeeabf23a349440d	-1.2753790636173637e-05
109	0x3ed4ebaa6b230ca6	4.9878523659701806e-06
110	0x3eeab3e6033a5cfb	1.27328531569896e-05
111	0x0000000000000000	0.0
112	0x0000000000000000	0.0
113	0x0000000000000000	0.0
114	0xbeda773a153d0765	-6.309921747606411e-06
115	0xbf125da87c57e00c	-7.006016593169589e-05
116	0xbf11873edbfac821	-6.686516916934493e-05
117	0xbf2ce0fc2312d4cc	-0.00022032811970055242
118	0xbf4144e8b557384a	-0.0005270134230899251
119	0xbf54f45e464a61f5	-0.0012789650583383526
120	0xbf67122f72a7f482	-0.0028162886349024094
121	0xbf75a4c6eab715cd	-0.00528409673592507
122	0xbf828a343e39a972	-0.009052665852512052
123	0xbf8c460b39ececc2	-0.013805473046537012
124	0xbf93b447ec341201	-0.01924240473910466
125	0xbf99366e1a88f7b8	-0.024621696824617095
126	0xbf9d5598eefdef1f	-0.02864684065524081
127	0xbfa0023d0151cc6f	-0.031267076884341154
128	0xbfa06b9410346ace	-0.032070757845038864
129	0xbf9c3837bab60fa4	-0.027558203478761492
130	0xbf964f8f0fb80f31	-0.021787867865000258
131	0xbf90487aadf8df5d	-0.015901486271303045
132	0xbf83e2d8036cd387	-0.009710013966108167
133	0xbf755c875e7e7ed3	-0.00521519545137013
134	0xbf6297387e978695	-0.002269373265094308
135	0xbf4a7ccf1056f82d	-0.000808335404762555
136	0xbf2b4b82167a0753	-0.00020824397073587273
137	0xbee62724df3c0586	-1.0563328920467804e-05
138	0x3ed4aa31ed5f8876	4.926878053953146e-06
139	0x0000000000000000	0.0
140	0x0000000000000000	0.0
141	0x0000000000000000	0.0
142	0xbefae831b6e013b1	-2.5660523014909158e-05
143	0xbefc20daf5ab6e8a	-2.682527643114869e-05
144	0xbf30771b7c73856f	-0.000251239977343407
145	0xbf49a1c4cce24808	-0.0007822237910366523
146	0xbf5a75337972bd99	-0.001614856975532186
147	0xbf6df9eb5dcc5157	-0.0036592099189737648
148	0xbf7f035637858e69	-0.00757154158086202
149	0xbf8d414ba06be2cb	-0.014284697373555663
150	0xbf97efa7de53aef1	-0.023375151581531865
151	0xbfa20543029f4b52	-0.035196394033525494
152	0xbfa776583e3fb8b0	-0.045824773405784724
153	0xbfab385959b6cfbc	-0.053164283944539176
154	0xbfad0750095169af	-0.05669641603226993
155	0xbfad35e471db2ff9	-0.0570517910942669
156	0xbfad7d251950fe90	-0.05759540494954962
157	0xbfabfa7f29e76e49	-0.054645513406026476
158	0xbfa887fd6c406dfe	-0.04791252085143681
159	0xbfa3a3b1e1a76792	-0.03835826758923057
160	0xbf9b9e77badb4619	-0.026971693782632842
161	0xbf9091412b732ec7	-0.016179102208112164
162	0xbf807cd1eff37cb7	-0.008050575385310272
163	0xbf6843f2b839f769	-0.0029620876901494298
164	0xbf479cb6b187f9f7	-0.0007205860193265069
165	0xbedfa8b2cefb9c53	-7.548088646314768e-06
166	0xbedb7e17e3a2a840	-6.554735188549611e-06
167	0x0000000000000000	0.0
168	0x0000000000000000	0.0
169	0xbece4f92232c25d2	-3.61333175058897e-06
170	0x3ee4b151faec5be2	9.867027839711597e-06
171	0x3ef0e1c55e344d7f	1.609985146184883e-05
172	0xbf3b55f1b9da2123	-0.00041710998071000006
173	0xbf55e68270a21ff7	-0.0013366960361356187
174	0xbf68403357f562cf	-0.002960300713010212
175	0xbf7b0a09fbabda61	-0.0066013708080761855
176	0xbf8bd2f66d4624c9	-0.013585972986009403
177	0xbf9a7d36b0bfbe4d	-0.025868277109053307
178	0xbfa5869bd34f48c5	-0.042042607826844804
179	0xbfae2d873b83f155	-0.05894110299593317
180	0xbfb1e364a589000d	-0.0698759941233222
181	0xbfb1f93f01f5d0e4	-0.07020944402558232
182	0xbfb051037cc7c550	-0.06373616978068708
183	0xbfad2978ebe64be3	-0.056957033916795095
184	0xbfac8032e72f820d	-0.05566557952966287
185	0xbfadfbccd32d13af	-0.05856170728524234
186	0xbfaf8b12117776ad	-0.061607899315032945
187	0xbfade0afcc08d789	-0.058354848534164346
188	0xbfa86b43d3634ff5	-0.04769336657923865
189	0xbfa05ae544a2ee09	-0.03194347822997307
190	0xbf9134ab06264d76	-0.016802475214331612
191	0xbf79e6218064ae6e	-0.006322985520721509
192	0xbf566fdf198ad2c3	-0.0013694456776366804
193	0xbf0808fc95a959cd	-4.5843323012096164e-05
194	0x3f07c70fb311c870	4.5352141008773365e-05
195	0x3ee289687027c219	8.839011120338269e-06
196	0x0000000000000000	0.0
197	0x3eea30e8268a0fc6	1.2488862197963703e-05
198	0x3f06519925aaf4be	4.256962411861843e-05
199	0x3f13b6509f0a15a7	7.519595215839965e-05
200	0xbf38f461c174d9fa	-0.000380777231345247
201	0xbf54847deb16a812	-0.0012522916480102214
202	0xbf6ac37a9f60fc3e	-0.003267039773191565
203	0xbf8226fcc6a92e31	-0.008863425076149319
204	0xbf945bd1f13603d8	-0.01988151583418926
205	0xbfa2e8748cb56684	-0.0369297429812834
206	0xbfacaa59cd71eedc	-0.05598717339395673
207	0xbfb243503f569452	-0.07133962198584357
208	0xbfb2a5feec5c2029	-0.07284539480690512
209	0xbfaec69d176fe979	-0.06010905181024646
210	0xbfa550c023157430	-0.041631702692690786
211	0xbf9aeea0c1d12db3	-0.02630091841665001
212	0xbf98c049eaa8fd13	-0.024171023318783357
213	0xbfa1bcadc4fb98e7	-0.034642629905464344
214	0xbfaa1d62a163c96c	-0.05100544185724484
215	0xbfafe7ddd251534d	-0.06231587593416652
216	0xbfaf2455efd08d97	-0.060824094318628834
217	0xbfa7571dd4e0d35c	-0.04558652137385508
218	0xbf9a3ad60c380f53	-0.0256150670011402
219	0xbf82f657e2b1be1b	-0.009258925061856485
220	0xbf5823ab6a87500c	-0.0014733480439774764
221	0x3f22bd485aca9963	0.00014297016368409595
222	0x3f179526074e2110	8.996052367938137e-05
223	0x3ecf88330faf134d	3.758910791048381e-06
224	0x3edb6297cc17e745	6.529123483195642e-06
225	0x3ee77b459afc26e2	1.1196866438040397e-05
226	0x3f177ec9a7f7c386	8.962732135110564e-05
227	0x3f21edd54f95c314	0.00013678769009175444
228	0xbf306460136ceef9	-0.00025012345888673866
229	0xbf4ee56dc769a695	-0.0009428773908670302
230	0xbf709b0304d75604	-0.004054080765361959
231	0xbf89ab125eed7b85	-0.01253332473942038
232	0xbf9c5da32ac4f8d2	-0.027700948224485718
233	0xbfa8413762b8e467	-0.04737256126504335
234	0xbfb08d67bba8b047	-0.0646576722289761
235	0xbfb21ddbcb8c0a52	-0.0707681056920049
236	0xbfaea6392e50bdc8	-0.05986193361638531
237	0xbfa30e500cd3d66f	-0.03721857220254498
238	0xbf833b865c7bc631	-0.009390878388759823
239	0x3f862ab98fc57f87	0.010823678684289252
240	0x3f8aa28a5f928f8a	0.013005333940163916
241	0xbf66017eeb1c1580	-0.0026862601160952404
242	0xbf9ea56ce0e78aae	-0.029927922465399596
243	0xbfacdf3596e10b7f	-0.05639045206819215
244	0xbfb130da15233dc9	-0.06715167060905637
245	0xbfaca1052ba7caa5	-0.055915986613304804
246	0xbfa19454bff0abfc	-0.034334801130476905
247	0xbf8ad081872bc9cb	-0.013093006074517263
248	0xbf5bbd7fdabac227	-0.001693129403900548
249	0x3f464d262abb4398	0.0006805836069024738
250	0x3f2e4d64db6ce526	0.00023118835607664165
251	0x3ef6fa22e273771c	2.1912665172921846e-05
252	0x3ef2619dd1a19889	1.7529787421110186e-05
253	0x3ef6af5400234d6d	2.1633983131886235e-05
254	0x3f15e7460e16c212	8.355488855361245e-05
255	0x3f29278877c0d0a6	0.00019191304079558164
