new/models/random_svm_rbf/model.pkl_14.npy (npy, 440 bytes, 1 tensors)

array f8 [45]
0	0x3fe4610f567ce835	0.6368481339661743
1	0xbfdf70eeeaa83a4c	-0.4912678996633175
2	0xbfd82229d4edd978	-0.3770851687799204
3	0x3fd9c12987db3420	0.40241468684399884
4	0xbfe53dab72d4ebf0	-0.6637780421073085
5	0x3fc6b9dc33d68297	0.17754700213574345
6	0x3fad15597382d6d1	0.05680350813910951
7	0x3fa3568be3357b8a	0.0377696719030985
8	0x3fc5186b35323081	0.16480770204032427
9	0xbfffc0a0e25edb7c	-1.9845284311865887
10	0xbff9cae85e9faf07	-1.612038011192398
11	0x3fbdb237b05b526d	0.11600063376983778
12	0xbff8cda859b88dbf	-1.5502093796466025
13	0xbfd769225d2e5174	-0.36579188441944344
14	0xbfe59b187af2c25f	-0.6751825715383112
15	0xbfe4279f9b08c6f6	-0.6298368480695149
16	0xbfbe327f78eefcdf	-0.11795803740004683
17	0x3fe297eb63e72a9e	0.581044860003505
18	0x3ff0a41e2424078d	1.040067807364241
19	0x3fc2d53e4c8c8889	0.14713267076246364
20	0x3ff316eeeb7b2116	1.1930989454722911
21	0x3ff0c31b87b22ef2	1.0476336765886427
22	0x3ffc3ca9e6e45fa3	1.7648104685995143
23	0x3fefd2d608b5b3cf	0.9944868250000755
24	0x3ff216c6066e8c57	1.1305599452250783
25	0xbfe85064c90fd83d	-0.7598136832227805
26	0x3feb832de83d3c17	0.859763101188835
27	0x3fdee1db18fa6e7e	0.4825351470878799
28	0x3ff6d2e6739d9dde	1.4264893070447822
29	0x3fedc5e8d8cf5fce	0.9304088816234015
30	0xbff56bbfb4c19c1f	-1.3388058720390814
31	0xbfccd5a6fbbc572d	-0.22527015010626297
32	0xbfe7f0a8ca0228f7	-0.7481273599126145
33	0xbfe7e0d5f90338cb	-0.7461957801367815
34	0xbfc7b30446cf7c99	-0.18515065629523944
35	0x3ff3616003c1b422	1.211273207354005
36	0x3fea1c09454d7433	0.8159223893704904
37	0x40016dce81da913a	2.1786165375544018
38	0x3ff6786dcc6f5504	1.4044015870798043
39	0xbfd4710a5eee4d5e	-0.31939944525330144
40	0xbfd2040b305b4946	-0.28149680826495105
41	0xbf913813570fde2c	-0.016815473736612116
42	0xbfb274918a6f9f48	-0.07209119443689105
43	0x3fe7bc3622cce6cb	0.7417250327773329
44	0x3fe055b99d3de96b	0.5104644843225236
